Found 729248 files belonging to 11172 classes.
Using 583399 files for training.
Using 145849 files for validation.
Model: "sequential"
_________________________________________________________________
 Layer (type)                Output Shape              Param #
=================================================================
 rescaling (Rescaling)       (None, 56, 56, 1)         0

 conv2d (Conv2D)             (None, 54, 54, 16)        160

 max_pooling2d (MaxPooling2  (None, 27, 27, 16)        0
 D)

 conv2d_1 (Conv2D)           (None, 25, 25, 32)        4640

 max_pooling2d_1 (MaxPoolin  (None, 12, 12, 32)        0
 g2D)

 conv2d_2 (Conv2D)           (None, 10, 10, 64)        18496

 max_pooling2d_2 (MaxPoolin  (None, 5, 5, 64)          0
 g2D)

 dropout (Dropout)           (None, 5, 5, 64)          0

 flatten (Flatten)           (None, 1600)              0

 dense (Dense)               (None, 11172)             17886372

=================================================================
Total params: 17909668 (68.32 MB)
Trainable params: 17909668 (68.32 MB)
Non-trainable params: 0 (0.00 Byte)
_________________________________________________________________
Epoch 1/15
570/570 [==============================] - 1357s 2s/step - loss: 7.4588 - sparse_categorical_accuracy: 0.0326 - val_loss: 5.2428 - val_sparse_categorical_accuracy: 0.1094
…
