Found 729249 files belonging to 28 classes.
Using 583400 files for training.
Using 145849 files for validation.
Model: "sequential"
_________________________________________________________________
 Layer (type)                Output Shape              Param #
=================================================================
 rescaling (Rescaling)       (None, 56, 56, 1)         0

 conv2d (Conv2D)             (None, 54, 54, 32)        320

 max_pooling2d (MaxPooling2  (None, 27, 27, 32)        0
 D)

 conv2d_1 (Conv2D)           (None, 25, 25, 64)        18496

 max_pooling2d_1 (MaxPoolin  (None, 12, 12, 64)        0
 g2D)

 conv2d_2 (Conv2D)           (None, 10, 10, 128)       73856

 max_pooling2d_2 (MaxPoolin  (None, 5, 5, 128)         0
 g2D)

 dropout (Dropout)           (None, 5, 5, 128)         0

 flatten (Flatten)           (None, 3200)              0

 dense (Dense)               (None, 28)                89628

=================================================================
Total params: 182300 (712.11 KB)
Trainable params: 182300 (712.11 KB)
Non-trainable params: 0 (0.00 Byte)
_________________________________________________________________
C:\Program Files (x86)\Microsoft Visual Studio\Shared\Python39_64\lib\site-packages\keras\src\backend.py:5729: UserWarning: "`sparse_categorical_crossentropy` received `from_logits=True`, but the `output` argument was produced by a Softmax activation and thus does not represent logits. Was this intended?
…
